INFO - sacred_ann_fc_repair - Running command 'my_experiment'
INFO - sacred_ann_fc_repair - Started run with ID "10"
loaded dataset ../../data/training/2018-01-11T19:08:00_repair_15min_bess.npy
training data has shape (51003, 101) -> (51003, 96) ; mean 0.02458215318620205 var 0.3342428505420685
_________________________________________________________________
Layer (type)                 Output Shape              Param #   
=================================================================
dense_1 (Dense)              (None, 101)               10302     
_________________________________________________________________
dense_2 (Dense)              (None, 64)                6528      
_________________________________________________________________
dense_3 (Dense)              (None, 96)                6240      
_________________________________________________________________
dense_4 (Dense)              (None, 96)                9312      
_________________________________________________________________
dense_5 (Dense)              (None, 96)                9312      
=================================================================
Total params: 41,694
Trainable params: 41,694
Non-trainable params: 0
_________________________________________________________________
None
2018-01-12 03:31:20.586289: I tensorflow/core/platform/cpu_feature_guard.cc:137] Your CPU supports instructions that this TensorFlow binary was not compiled to use: SSE4.1 SSE4.2 AVX AVX2 FMA
…
