INFO - sacred_ann_fc_3nets - Running command 'my_experiment'
INFO - sacred_ann_fc_3nets - Started run with ID "5"
loaded dataset ../../data/training/2018-01-09T18:26:00_classification_15min_chp.npy
training data has shape (52800, 101) ; 19751 feasible and 33049 unfeasible
_________________________________________________________________
Layer (type)                 Output Shape              Param #   
=================================================================
dense_1 (Dense)              (None, 98)                9702      
_________________________________________________________________
dense_2 (Dense)              (None, 50)                4950      
_________________________________________________________________
dense_3 (Dense)              (None, 10)                510       
_________________________________________________________________
dense_4 (Dense)              (None, 1)                 11        
=================================================================
Total params: 15,173
Trainable params: 15,173
Non-trainable params: 0
_________________________________________________________________
None
_________________________________________________________________
Layer (type)                 Output Shape              Param #   
=================================================================
dense_5 (Dense)              (None, 98)                9702      
_________________________________________________________________
dense_6 (Dense)              (None, 50)                4950      
_________________________________________________________________
dense_7 (Dense)              (None, 10)                510       
_________________________________________________________________
dense_8 (Dense)              (None, 1)                 11        
=================================================================
Total params: 15,173
Trainable params: 15,173
Non-trainable params: 0
_________________________________________________________________
None
_________________________________________________________________
Layer (type)                 Output Shape              Param #   
=================================================================
dense_9 (Dense)              (None, 98)                9702      
_________________________________________________________________
dense_10 (Dense)             (None, 50)                4950      
_________________________________________________________________
dense_11 (Dense)             (None, 10)                510       
_________________________________________________________________
dense_12 (Dense)             (None, 1)                 11        
=================================================================
Total params: 15,173
Trainable params: 15,173
Non-trainable params: 0
_________________________________________________________________
None
2018-01-10 17:24:28.064817: I tensorflow/core/platform/cpu_feature_guard.cc:137] Your CPU supports instructions that this TensorFlow binary was not compiled to use: SSE4.1 SSE4.2 AVX AVX2 FMA
…
