INFO - sacred_rnn_lstm_repair - Running command 'my_experiment'
INFO - sacred_rnn_lstm_repair - Started run with ID "21"
loaded dataset ../../data/training/2018-01-11T19:08:00_repair_15min_bess_chp.npy
training data has shape (54804, 101) -> (54804, 96) ; mean -0.23300349712371826 var 0.4904291331768036
__________________________________________________________________________________________________
Layer (type)                    Output Shape         Param #     Connected to                     
==================================================================================================
input_1 (InputLayer)            (None, 101)          0                                            
__________________________________________________________________________________________________
lambda_2 (Lambda)               (None, 96)           0           input_1[0][0]                    
__________________________________________________________________________________________________
dense_3 (Dense)                 (None, 96)           9312        lambda_2[0][0]                   
__________________________________________________________________________________________________
lambda_1 (Lambda)               (None, 5)            0           input_1[0][0]                    
__________________________________________________________________________________________________
reshape_1 (Reshape)             (None, 96, 1)        0           dense_3[0][0]                    
__________________________________________________________________________________________________
dense_1 (Dense)                 (None, 64)           384         lambda_1[0][0]                   
__________________________________________________________________________________________________
dense_2 (Dense)                 (None, 64)           384         lambda_1[0][0]                   
__________________________________________________________________________________________________
cu_dnnlstm_1 (CuDNNLSTM)        (None, 96, 64)       17152       reshape_1[0][0]                  
                                                                 dense_1[0][0]                    
                                                                 dense_2[0][0]                    
__________________________________________________________________________________________________
time_distributed_1 (TimeDistrib (None, 96, 64)       4160        cu_dnnlstm_1[0][0]               
__________________________________________________________________________________________________
time_distributed_2 (TimeDistrib (None, 96, 1)        65          time_distributed_1[0][0]         
__________________________________________________________________________________________________
flatten_1 (Flatten)             (None, 96)           0           time_distributed_2[0][0]         
==================================================================================================
Total params: 31,457
Trainable params: 31,457
Non-trainable params: 0
__________________________________________________________________________________________________
2018-01-12 10:48:18.384424: I tensorflow/core/platform/cpu_feature_guard.cc:137] Your CPU supports instructions that this TensorFlow binary was not compiled to use: SSE4.1 SSE4.2 AVX AVX2 FMA
…
