INFO - sacred_ann_fc2_representation - Running command 'my_experiment'
INFO - sacred_ann_fc2_representation - Started run with ID "52"
loaded dataset ../../data/training/2018-01-18T17:57:00_representation_CS_15min_chp.npy
training data has shape (16800, 101) -> (16800, 96) ; mean -0.3078007102012634 var 0.4615836441516876
_________________________________________________________________
Layer (type)                 Output Shape              Param #   
=================================================================
dense_1 (Dense)              (None, 96)                9792      
_________________________________________________________________
dense_2 (Dense)              (None, 64)                6208      
_________________________________________________________________
dense_3 (Dense)              (None, 64)                4160      
_________________________________________________________________
dense_4 (Dense)              (None, 64)                4160      
_________________________________________________________________
dense_5 (Dense)              (None, 96)                6240      
=================================================================
Total params: 30,560
Trainable params: 30,560
Non-trainable params: 0
_________________________________________________________________
None
2018-01-21 02:37:30.466771: I tensorflow/core/platform/cpu_feature_guard.cc:137] Your CPU supports instructions that this TensorFlow binary was not compiled to use: SSE4.1 SSE4.2 AVX AVX2 FMA
…
