INFO - sacred_ann_fc2_prices - Running command 'my_experiment'
INFO - sacred_ann_fc2_prices - Started run with ID "32"
loaded dataset ../../data/training/2018-01-11T01:57:00_price-based_15min_chp.npy
training data has shape (871, 29) -> (871, 96) ; mean -84.53050231933594 var 377.76397705078125
_________________________________________________________________
Layer (type)                 Output Shape              Param #   
=================================================================
dense_1 (Dense)              (None, 96)                2880      
_________________________________________________________________
dense_2 (Dense)              (None, 64)                6208      
_________________________________________________________________
dense_3 (Dense)              (None, 64)                4160      
_________________________________________________________________
dense_4 (Dense)              (None, 64)                4160      
_________________________________________________________________
dense_5 (Dense)              (None, 96)                6240      
=================================================================
Total params: 23,648
Trainable params: 23,648
Non-trainable params: 0
_________________________________________________________________
None
2018-01-20 23:06:24.574935: I tensorflow/core/platform/cpu_feature_guard.cc:137] Your CPU supports instructions that this TensorFlow binary was not compiled to use: SSE4.1 SSE4.2 AVX AVX2 FMA
…
