INFO - sacred_ann_fc2_prices - Running command 'my_experiment'
INFO - sacred_ann_fc2_prices - Started run with ID "22"
loaded dataset ../../data/training/2018-01-11T01:57:00_price-based_15min_bess_chp.npy
training data has shape (9583, 29) -> (9583, 96) ; mean -29.754215240478516 var 64.64319610595703
_________________________________________________________________
Layer (type)                 Output Shape              Param #   
=================================================================
dense_1 (Dense)              (None, 96)                2880      
_________________________________________________________________
dense_2 (Dense)              (None, 64)                6208      
_________________________________________________________________
dense_3 (Dense)              (None, 64)                4160      
_________________________________________________________________
dense_4 (Dense)              (None, 64)                4160      
_________________________________________________________________
dense_5 (Dense)              (None, 96)                6240      
=================================================================
Total params: 23,648
Trainable params: 23,648
Non-trainable params: 0
_________________________________________________________________
None
2018-01-20 22:28:28.076247: I tensorflow/core/platform/cpu_feature_guard.cc:137] Your CPU supports instructions that this TensorFlow binary was not compiled to use: SSE4.1 SSE4.2 AVX AVX2 FMA
…
