INFO - sacred_cnn_fc_repair - Running command 'my_experiment'
INFO - sacred_cnn_fc_repair - Started run with ID "15"
loaded dataset ../../data/training/2018-01-11T19:08:00_repair_15min_bess_chp.npy
training data has shape (54804, 101) -> (54804, 96) ; mean -0.23300349712371826 var 0.4904291331768036
__________________________________________________________________________________________________
Layer (type)                    Output Shape         Param #     Connected to                     
==================================================================================================
input_1 (InputLayer)            (None, 101)          0                                            
__________________________________________________________________________________________________
reshape_1 (Reshape)             (None, 101, 1)       0           input_1[0][0]                    
__________________________________________________________________________________________________
lambda_2 (Lambda)               (None, 96, 1)        0           reshape_1[0][0]                  
__________________________________________________________________________________________________
conv1d_1 (Conv1D)               (None, 92, 32)       192         lambda_2[0][0]                   
__________________________________________________________________________________________________
flatten_1 (Flatten)             (None, 2944)         0           conv1d_1[0][0]                   
__________________________________________________________________________________________________
lambda_1 (Lambda)               (None, 5)            0           reshape_1[0][0]                  
__________________________________________________________________________________________________
concatenate_1 (Concatenate)     (None, 2949)         0           flatten_1[0][0]                  
                                                                 lambda_1[0][0]                   
__________________________________________________________________________________________________
dense_1 (Dense)                 (None, 128)          377600      concatenate_1[0][0]              
__________________________________________________________________________________________________
dense_2 (Dense)                 (None, 96)           12384       dense_1[0][0]                    
==================================================================================================
Total params: 390,176
Trainable params: 390,176
Non-trainable params: 0
__________________________________________________________________________________________________
None
2018-01-12 03:55:00.866692: I tensorflow/core/platform/cpu_feature_guard.cc:137] Your CPU supports instructions that this TensorFlow binary was not compiled to use: SSE4.1 SSE4.2 AVX AVX2 FMA
…
