INFO - sacred_cnn_pool1_prices - Running command 'my_experiment'
INFO - sacred_cnn_pool1_prices - Started run with ID "24"
loaded dataset ../../data/training/2018-01-11T01:57:00_price-based_15min_bess_chp.npy
training data has shape (9583, 29) -> (9583, 96) ; mean -29.754215240478516 var 64.64319610595703
_________________________________________________________________
Layer (type)                 Output Shape              Param #   
=================================================================
input_1 (InputLayer)         (None, 29)                0         
_________________________________________________________________
dense_1 (Dense)              (None, 96)                2880      
_________________________________________________________________
reshape_1 (Reshape)          (None, 96, 1)             0         
_________________________________________________________________
conv1d_1 (Conv1D)            (None, 96, 48)            288       
_________________________________________________________________
max_pooling1d_1 (MaxPooling1 (None, 48, 48)            0         
_________________________________________________________________
conv1d_2 (Conv1D)            (None, 48, 48)            6960      
_________________________________________________________________
max_pooling1d_2 (MaxPooling1 (None, 24, 48)            0         
_________________________________________________________________
conv1d_3 (Conv1D)            (None, 24, 1)             241       
_________________________________________________________________
up_sampling1d_1 (UpSampling1 (None, 48, 1)             0         
_________________________________________________________________
conv1d_4 (Conv1D)            (None, 48, 48)            192       
_________________________________________________________________
up_sampling1d_2 (UpSampling1 (None, 96, 48)            0         
_________________________________________________________________
conv1d_5 (Conv1D)            (None, 96, 48)            11568     
_________________________________________________________________
conv1d_6 (Conv1D)            (None, 96, 1)             241       
_________________________________________________________________
flatten_1 (Flatten)          (None, 96)                0         
=================================================================
Total params: 22,370
Trainable params: 22,370
Non-trainable params: 0
_________________________________________________________________
None
2018-01-20 22:29:50.158481: I tensorflow/core/platform/cpu_feature_guard.cc:137] Your CPU supports instructions that this TensorFlow binary was not compiled to use: SSE4.1 SSE4.2 AVX AVX2 FMA
…
