INFO - sacred_ann_fc2_representation - Running command 'my_experiment'
INFO - sacred_ann_fc2_representation - Started run with ID "49"
loaded dataset ../../data/training/2018-01-18T17:57:00_representation_CS_15min_bess.npy
training data has shape (26400, 101) -> (26400, 96) ; mean 0.033836327493190765 var 0.5649557113647461
_________________________________________________________________
Layer (type)                 Output Shape              Param #   
=================================================================
dense_1 (Dense)              (None, 96)                9792      
_________________________________________________________________
dense_2 (Dense)              (None, 64)                6208      
_________________________________________________________________
dense_3 (Dense)              (None, 64)                4160      
_________________________________________________________________
dense_4 (Dense)              (None, 64)                4160      
_________________________________________________________________
dense_5 (Dense)              (None, 96)                6240      
=================================================================
Total params: 30,560
Trainable params: 30,560
Non-trainable params: 0
_________________________________________________________________
None
2018-01-20 23:12:53.849419: I tensorflow/core/platform/cpu_feature_guard.cc:137] Your CPU supports instructions that this TensorFlow binary was not compiled to use: SSE4.1 SSE4.2 AVX AVX2 FMA
…
